后端/model2.pt (torch, 72791 bytes, 5 tensors)

rnn.weight_ih_l0 f4 [256, 3]
000000 2e b6 83 be 68 ed 19 be 8e f4 1b be 81 b9 26 bd
       -0.2572493 -0.1503197 -0.15230009 -0.040704254
000010 36 9a 8a 3d 5c 36 16 be dc be 8a bd d1 5c a3 bd
       0.06767695 -0.14669174 -0.06774685 -0.07976688
000020 24 5c 3f bd c1 fe 81 bd ee f8 36 3d 93 27 e7 bd
       -0.04671873 -0.063474186 0.04467099 -0.11286845
000030 7c 94 25 be 75 68 1d be df 05 e8 bd be bd 46 be
       -0.16169924 -0.15371878 -0.11329245 -0.19408318
000040 a2 15 0b 3c 20 a2 d0 bd 7e 4e ea bd 09 37 4e 3d
       0.008489044 -0.10187173 -0.114407524 0.050345454
000050 4e 0a 15 bd e6 6e f9 bd 89 31 1e be d9 9c ff bd
       -0.03638678 -0.12179355 -0.15448584 -0.12481088
000060 3f 4e 13 3e 3a a7 96 bc 60 00 cc bd f3 34 5c be
       0.14385317 -0.018390287 -0.09961009 -0.21504574
000070 56 80 85 bd e1 3e 76 be 49 8a 2e be 14 39 25 3e
       -0.06518619 -0.24047424 -0.17044939 0.16135055
000080 9c 0f 0d be 8b 97 12 be 0a 9f db 39 c7 d3 2d bd
       -0.13775486 -0.14315622 0.00041889428 -0.042438295
000090 b9 38 ca 3c f5 8f cd 3b 93 97 04 be 98 17 22 be
       0.02468525 0.0062732645 -0.12948446 -0.15829313
0000a0 65 aa b6 3d bf c7 42 be ef 08 d8 3d 16 c2 5c bd
       0.08919219 -0.1902151 0.10548579 -0.053896032
0000b0 5b 76 57 be c7 fc 5b be 39 38 a0 3d aa 66 9f bd
       -0.21041243 -0.21483146 0.078232236 -0.077832535
0000c0 b3 c1 27 3e e1 9c 0c 3e 03 a8 95 bd cd 14 0f 3e
       0.16382484 0.1373172 -0.07307436 0.13972779
0000d0 de a2 cc bd d0 06 f1 3d 23 88 44 3c 9d a0 3e bd
       -0.09992002 0.117688775 0.011995348 -0.04653989
0000e0 c2 80 29 3d 83 47 1a be 67 99 17 bd c9 b0 29 bd
       0.04138256 -0.15066342 -0.03701153 -0.04142836
0000f0 51 1b 1a bd c2 4e 02 3d 90 0f cf bd f1 0c 3e 3d
       -0.037623707 0.03181339 -0.1011039 0.04639906
000100 54 7d fa 3c 2e 9e 2a be e5 bc 25 be 6a 53 df bd
       0.03057734 -0.16661903 -0.16185339 -0.10904582
000110 7c cd 43 bd f5 b9 dc bd f7 76 17 be 65 69 1e bc
       -0.047803387 -0.10777656 -0.14791475 -0.009668683
000120 57 5c 29 be 4e 21 ee 3d e9 43 3f be 93 3e a5 bd
       -0.16539131 0.11627446 -0.1867825 -0.08068576
000130 be 67 16 be 90 d7 b0 bd d5 01 07 be 83 2d 3e bd
       -0.14688012 -0.08634865 -0.13184293 -0.046430122
000140 22 41 3f be bf 8d 11 be 78 c9 90 bc 45 cb a4 bd
       -0.1867719 -0.14214228 -0.017674193 -0.08046583
000150 42 3b 0a bc e7 61 de 3d f3 4b 3a be ab f6 33 bb
       -0.00843698 0.10858517 -0.18193035 -0.0027460258
000160 8e 7f 06 be 0f 5f fa bd fb 9a 78 bd a6 f0 55 3d
       -0.13134596 -0.12225162 -0.060694676 0.052231453
000170 7b 25 33 3d 9c eb ad bd 78 c8 78 bd cc 4f e5 bc
       0.043736916 -0.084922045 -0.060738057 -0.027992152
000180 cd 3a 22 be 69 74 b4 bd 0a fb 07 3c 9e ca ae 3d
       -0.15842743 -0.08811266 0.0082995985 0.0853474
000190 5f 8f 74 3d 34 8a cd 3d 0a 44 62 bd 50 e8 be 3d
       0.05970704 0.10036126 -0.05524067 0.09321654
0001a0 d9 42 cf 3d e6 70 1e be 17 2a 43 3d b5 35 a0 bd
       0.10120172 -0.15472755 0.047647562 -0.07822744
0001b0 ea 91 1e bd 0f 82 b3 bc 26 e0 99 3b 07 d0 95 bc
       -0.038713373 -0.021912603 0.00469591 -0.018287672
0001c0 11 9c 05 3e 10 ec 1d be 03 e3 ba bd d9 2f d6 bd
       0.13047816 -0.15422082 -0.0912533 -0.10458345
0001d0 e7 08 47 be b5 64 61 be f1 2a 25 3e dd 6c 9d bd
       -0.1943699 -0.22011073 0.16129662 -0.0768678
0001e0 e4 32 1c bd d4 1e d8 bc 68 d1 b4 3c 2a 83 4e 3c
       -0.03813447 -0.026381887 0.022072509 0.012604514
0001f0 93 f6 b3 bd da 87 97 3c 68 39 8c bd cc b2 49 3b
       -0.08787265 0.018497396 -0.06846887 0.0030776737
000200 87 88 4c bd 96 11 10 be b2 eb eb bd 19 f4 d8 bc
       -0.04993489 -0.14069209 -0.11519565 -0.026483582
000210 1d ee 5f be 82 38 1b be 5d 74 68 bd aa 6f 0e 3e
       -0.21868177 -0.15158275 -0.056751598 0.13909784
000220 a5 48 03 3e 36 89 c7 3b 88 85 91 bd 85 70 3b bc
       0.1282068 0.006089355 -0.07105547 -0.011440401
000230 91 64 98 bd 6a 3a 8b bd cc b3 4e bc 46 be 13 be
       -0.074410565 -0.06798251 -0.012616109 -0.14428052
000240 42 15 8f bd 65 25 20 3e 37 0c c9 bc 39 8c fb 3d
       -0.069864765 0.15639265 -0.024541957 0.12282605
000250 4b c4 c9 3d ab c1 1a 3e 1d c1 09 3e 1b 7d c5 bc
       0.09851893 0.15112941 0.13452573 -0.024107506
000260 d1 02 99 bd 0b 34 19 bc a2 77 e5 3c 69 77 85 bc
       -0.0747124 -0.009350787 0.028011147 -0.01629229
000270 f4 03 31 be 8d 7e 96 bd c5 2e c4 bd c7 be eb 3d
       -0.17286664 -0.073483564 -0.09579233 0.11510997
000280 7c c5 07 3e 62 b9 9f bd bd 17 c3 3d a2 07 9f bd
       0.13258928 -0.07799031 0.09526012 -0.07765128
000290 7d 07 51 bd 23 1b 44 3b 4c bf 5c 3c dd c9 62 be
       -0.051032532 0.0029923401 0.013473343 -0.22147317
0002a0 97 59 36 3d 7a c5 03 bd af 37 75 bd b1 f1 b4 bd
       0.044519033 -0.03217075 -0.059867557 -0.088351615
0002b0 6a 9b a9 bc db 1f 11 bd ac 78 67 3d 0b 8a 4c 3d
       -0.02070399 -0.03543077 0.056511566 0.049936336
0002c0 0c 07 80 bc be 97 0f be 5f 59 24 3b 6b c0 44 be
       -0.01562836 -0.14022729 0.0025077683 -0.19214027
0002d0 e4 ab 10 be ae b4 d0 3d 53 eb 0f bc 9a 8a 01 3e
       -0.14128071 0.10190712 -0.008784133 0.12650529
0002e0 48 ba c2 bd 2f dd 88 bd 68 c5 2c be 4a ef 8e 3d
       -0.095081866 -0.066828124 -0.1687218 0.069792345
0002f0 77 ce 3e be 7d d2 de bc d0 6b e0 b8 0b dd 6b bd
       -0.18633448 -0.027199978 -0.00010701234 -0.05758385
000300 e4 43 4c 3d 33 48 74 bd c2 6d a0 bd 5d e0 4b be
       0.049869433 -0.059639167 -0.07833435 -0.19909807
000310 1c 33 be 3c 7d 32 b5 bc 45 35 b7 bd 1a e3 b3 bd
       0.02321773 -0.022118801 -0.08945707 -0.087835506
000320 0c 39 9a bd b1 3d 19 3d 94 44 9c bd 08 fc aa bd
       -0.07530412 0.03741235 -0.07630268 -0.083488524
000330 a1 66 ae bd f0 bd 60 bd cc ca 40 be ad a3 19 3e
       -0.08515669 -0.05486864 -0.18827361 0.15003844
000340 e4 f4 8c bd a6 ee a8 3d 2b 1f 95 3d 89 37 cf 3d
       -0.06882647 0.082486436 0.072813354 0.10118014
000350 30 13 17 3e 7d 70 99 bd 2d 8a fc bc 44 f0 0c be
       0.14753413 -0.074921586 -0.030827606 -0.13763529
000360 dc 51 2f 3e 91 de 69 3b d9 b0 16 3e 37 bf 35 be
       0.1712107 0.0035685638 0.147159 -0.17748724
000370 29 ec 1c 3d c9 19 e3 3a 64 32 ad 3c ec 0d 6b 3d
       0.038311157 0.001732641 0.021142192 0.057386324
000380 15 23 fa 3d 54 d6 c6 3b bf 5b ba bd 89 97 d9 bd
       0.122137226 0.0060680304 -0.090995304 -0.10624606
000390 41 c3 bf bd 95 ac e8 bd 50 a5 0b 3c 6d 3d af 3d
       -0.093634136 -0.113610424 0.0085233 0.08556638
0003a0 d7 3f fe bd e1 08 9b 3c d4 3d 09 be 08 84 85 bd
       -0.1241452 0.018925132 -0.13402492 -0.065193236
0003b0 91 8e f7 bd 32 16 74 3c 4e ba 33 3c 8e af cb bd
       -0.12087739 0.01489787 0.0109697115 -0.09945594
0003c0 97 ad 1f bd 41 3a 4b ba 42 37 8c 3d 3a c3 0a 3e
       -0.038983908 -0.0007752516 0.06846477 0.13551036
0003d0 ab 71 5e bd a6 9a 49 3c 57 3a 4b bb c3 98 3c 3b
       -0.05430762 0.0123049375 -0.0031010115 0.0028777577
0003e0 ef 29 13 be d5 37 96 bd 94 c9 4b 3a e5 23 4e bd
       -0.14371465 -0.07334868 0.0007773873 -0.0503272
0003f0 b1 dd ec bd 76 9a e1 bd 6f ec 34 be 56 11 c4 ba
       -0.11565722 -0.11015789 -0.17668317 -0.001495878

rnn.weight_hh_l0 f4 [256, 64]
000000 19 7c 0c 3e 11 b8 cb bc 4c 0e 26 be 35 52 65 3d
       0.13719214 -0.024868043 -0.16216391 0.0559866
000010 8f 7c 2d 3e 51 51 da 3c 80 c3 1e bd 2a f5 30 be
       0.16942047 0.026650103 -0.038760662 -0.17281023
000020 77 f7 29 3e 41 27 e5 bd 95 58 32 3d 2b a6 06 3d
       0.16598307 -0.11189128 0.04354151 0.032873314
000030 41 f6 ed bd 40 f8 be bc f0 fe d0 3d 2f 12 dd 3d
       -0.11619235 -0.023311734 0.102048755 0.10794484
000040 aa 30 60 bc 6e 00 26 3e ac 2d 90 3d f3 0d 13 bd
       -0.013683477 0.16211101 0.07039961 -0.035901975
000050 ed 97 15 3d e6 56 c9 bd 7b 4d 38 be f5 b1 d2 3d
       0.03652184 -0.09831028 -0.17998306 0.10287849
000060 f3 e2 48 3c fa 13 06 3c 11 cd 1d 3d 0c 83 02 bc
       0.01226114 0.008183474 0.038525645 -0.007965814
000070 52 d0 d0 3c be a3 00 3e a3 65 c3 bd 14 55 f3 bc
       0.02548996 0.12562463 -0.0954087 -0.029703654
000080 8f 62 c4 3d b0 1d 03 bd 84 02 b4 3d 84 20 9a 3d
       0.09589111 -0.032010734 0.08789542 0.07525733
000090 d5 ba 81 3d 60 16 da 3d 7a 3b 45 be 90 86 80 3d
       0.063344635 0.10648799 -0.1926097 0.06275666
0000a0 42 70 e4 3d 8b c9 72 bc 6e 11 98 bd 52 f4 23 3d
       0.11154224 -0.014818559 -0.074251994 0.040027924
0000b0 46 54 1c 3e 88 59 86 bd 1a 5d 3c 3c e4 a0 94 bb
       0.15266523 -0.065600455 0.0114968065 -0.004535781
0000c0 1d 6e 4b be 7f 49 a9 3d 82 cc a7 bd 7c 3b 98 bd
       -0.19866224 0.082659714 -0.08193304 -0.07433221
0000d0 eb 2b 27 3e 13 43 64 3d 0d e4 b9 bc f9 23 16 be
       0.16325347 0.05572803 -0.02269175 -0.1466216
0000e0 71 ad fa 3b 30 56 ec ba 47 4d dc 3d 71 63 90 3d
       0.0076500704 -0.0018031057 0.10756927 0.07050217
0000f0 4d 29 8e 3c 96 75 22 3e 6a 72 4c 3d 89 c9 65 bd
       0.017353678 0.15865168 0.0499138 -0.056100402
000100 08 fa a9 bd b5 0e ec bd fd 54 99 3d 7f 6c e9 3d
       -0.08299643 -0.11526243 0.07486913 0.11397647
000110 ae 7e 9e 39 b7 fd 15 3d 8f bb fe bd 6a 4c bc 3b
       0.00030230492 0.036618914 -0.12438118 0.005746414
000120 43 ed 43 bd 23 f3 98 3c cf 0a cc bd af 75 e0 bb
       -0.047833692 0.018670624 -0.09962999 -0.0068499665
000130 30 8f d4 bd 45 a0 e9 3d b2 9b d5 bc 18 35 56 bd
       -0.10378873 0.11407522 -0.026075218 -0.052296728
000140 ce ee 84 3d 79 c7 7c bd 9d 53 e1 3c 50 84 97 bd
       0.06490861 -0.06171367 0.02750569 -0.073982835
000150 42 ce 28 3d e1 d7 9a 3d 9d ac c0 bd 07 66 db 3c
       0.041212328 0.07560707 -0.09407923 0.026782049
000160 a0 78 ab 3d 25 50 a0 3d fc 4b a5 3d 59 b1 29 bd
       0.08372617 0.07827786 0.080711335 -0.041428898
000170 a8 3d ef 3d 18 22 21 3d c7 41 4d 3c ba 3e d9 bd
       0.11681682 0.039339155 0.01252789 -0.10607667
000180 a6 e4 a6 3d b3 85 b0 bd 8e 76 06 bd e2 25 a8 3d
       0.0814908 -0.08619251 -0.032827906 0.082103506
000190 c2 45 d4 3d 65 a2 c5 3d 11 8d 1a bd 94 60 aa bd
       0.10364868 0.09650115 -0.037732188 -0.08319202
0001a0 f5 cb 28 bc 4b f8 87 bd 08 fe 92 3d cd 5a 93 3d
       -0.010302533 -0.06639155 0.07177359 0.07195053
0001b0 59 b3 ea 3d 4b 6a 10 be 36 91 a0 bd 74 a6 20 3e
       0.11459989 -0.14103048 -0.07840197 0.15688497
0001c0 db 7d 68 bc 5f 2f f4 3d 9b c5 8d bc 28 20 f5 3b
       -0.0141901625 0.11923098 -0.01730614 0.00748064
0001d0 d2 9d 64 bc 34 38 5c 3d 4a e0 10 ba b5 62 34 bc
       -0.013953643 0.053764537 -0.0005526586 -0.011009862
0001e0 74 85 f1 bd c5 0a 8d 3d 1d a5 6a 3c 3d ce f9 3d
       -0.11793032 0.0688682 0.014321593 0.1219754
0001f0 12 25 cf 3d 22 4a f4 3b 60 b6 7f bd 42 8d 73 3d
       0.101144925 0.0074551264 -0.062429786 0.059460886
000200 bb 60 0c 3d bc c3 90 bd 1d 48 3a 3d 3c e4 c0 3d
       0.034271937 -0.07068583 0.04547893 0.09418532
000210 2a b4 03 be 37 1a 61 bd 08 4e 0f be c8 ba c5 ba
       -0.12861696 -0.05495664 -0.1399461 -0.0015085572
000220 59 80 41 bd 10 67 f2 3d ad 6a 5c bc fa 59 7c bb
       -0.047241542 0.11836064 -0.013453168 -0.0038505779
000230 a8 83 86 3d 15 28 29 be ba 05 e4 3d 98 cd 88 3d
       0.0656808 -0.16519196 0.11133905 0.06679839
000240 34 b8 82 3d db 64 6c 3d 6f c7 29 3d ce 97 7a 3c
       0.0638279 0.05771337 0.04144996 0.015294982
000250 c3 7e 7a bd 89 51 b7 3d 07 08 78 bd 1a f8 f0 bc
       -0.061156046 0.089510985 -0.06055453 -0.029415179
000260 35 c3 06 3e b7 22 d7 bd 5d b4 0a 3c f4 96 1b 3e
       0.13160403 -0.10504668 0.0084658535 0.15194303
000270 0d 1f 19 be a1 d2 b8 bd 07 b7 e3 3d 5e f9 08 be
       -0.14953251 -0.09024549 0.11118894 -0.13376376
000280 fe 9a 53 bd ac 6c 30 3d 98 54 b7 bd fe bc 44 bd
       -0.051661484 0.043072388 -0.08951682 -0.0480318
000290 c4 dd 8c bc 92 d2 85 3d 4f ad 27 3d ea 01 bc 3c
       -0.01719559 0.06534304 0.040936764 0.022950131
0002a0 fa ef c4 3d 24 97 b4 bd 21 51 83 bd 17 fe 09 bd
       0.096160844 -0.0881789 -0.064119585 -0.033689585
0002b0 9f 10 06 be 47 88 ad bd 29 74 c5 bd 7c a2 93 3c
       -0.13092278 -0.084732585 -0.096412964 0.018021815
0002c0 99 43 d3 bd c4 9b c9 bd c2 27 90 3d 4c 53 93 3c
       -0.103156276 -0.09844163 0.07038833 0.017984055
0002d0 30 8e 94 bd f0 07 16 3e 26 ea b2 3d 56 07 e2 bc
       -0.072536826 0.14651465 0.087360665 -0.027591389
0002e0 d2 75 0c bd 20 6c c9 bd 7f 7b be bc 63 db a4 bd
       -0.03429205 -0.09835076 -0.023252247 -0.08049657
0002f0 44 ba c3 3a 8a 5c d4 bd 59 67 01 3e 40 13 9a bd
       0.0014932831 -0.10369213 0.1263708 -0.07523203
000300 71 9d 45 bd 1d 88 0e 3d ed 39 ad 3b a7 91 ce 3d
       -0.04824585 0.034797776 0.0052864463 0.10086375
000310 b5 55 4b 3e e4 a6 7a 3d 20 d4 28 3d e3 3e 2c be
       0.19856913 0.061194316 0.041217923 -0.16820864
000320 26 67 a2 bd a4 b0 ec bd be 03 76 bd 07 b2 7c bc
       -0.0792983 -0.11557129 -0.060062163 -0.015423304
000330 c1 6b e2 bd e8 b6 b7 3d 86 1f c1 bc 84 9c 08 bc
       -0.11055709 0.089704335 -0.023574602 -0.0083380975
000340 92 91 c3 3b 1c da 76 bd 4f 3e ce bc 1a 7c c7 bd
       0.005968281 -0.0602666 -0.025176195 -0.09740467
000350 f2 85 b8 bd 15 7d 25 3c 54 df 16 be 74 05 5a bd
       -0.09009923 0.010100623 -0.1473363 -0.053227857
000360 83 da d0 3d dd a9 8d 3c 1c 6e 5f bd 9f 05 d4 3d
       0.10197928 0.017292911 -0.054548368 0.10352635
000370 57 90 12 3e e2 fe b5 3d bc 51 00 be b1 89 ec bd
       0.14312874 0.08886506 -0.12531179 -0.115497
000380 24 d8 0f 3e 5a 00 b3 bd a0 cf e3 3d 08 db e2 3c
       0.14047295 -0.087403014 0.11123586 0.027692333
000390 aa 1c 73 3d f6 81 1b 3d 1b 2b 90 bd cb ca f5 3d
       0.059353508 0.037965737 -0.07039472 0.1200157
0003a0 b1 14 25 3e 8a 3f ea bd d0 40 9c bd 97 bd 02 be
       0.16121174 -0.114379 -0.076295495 -0.12767635
0003b0 3b 7d 04 3e ff 08 bf bd fa e2 36 be ec 83 48 bc
       0.12938397 -0.09327888 -0.17860022 -0.012238484
0003c0 81 46 f2 bc a4 84 91 3d 52 a6 72 3d 54 e7 13 3e
       -0.029574635 0.07105377 0.059240647 0.14443713
0003d0 14 08 b4 3d 65 03 5e 3d 14 5c 3a be 09 78 e1 bc
       0.08790603 0.054202456 -0.18199188 -0.027523058
0003e0 21 fb 2e be fc 75 2e be 5c 7b 1c 3e 31 84 5a 3c
       -0.17087986 -0.17037195 0.15281433 0.013337181
0003f0 eb 92 3f 3e 94 60 98 3d 1c 08 03 be 8d ab e7 3d
       0.18708389 0.07440296 -0.12796062 0.113120176

rnn.bias_ih_l0 f4 [256]
000000 66 b6 13 3e 17 54 26 3e 75 d1 87 bd 07 e4 da 3d
       0.14425048 0.16243015 -0.06631748 0.10688024
000010 9c 61 21 3e 6e 91 9d bc 08 68 92 bd c7 05 0e 3d
       0.15759891 -0.019234385 -0.07148749 0.03467348
000020 2c c7 5d 3d 44 ea fe 3c 86 04 2c 3e 69 01 fc 3d
       0.054145023 0.031117566 0.167986 0.123049565
000030 f2 a3 01 3e 0a 75 3d 3d 54 40 b2 3d 28 66 da 3d
       0.12660196 0.046254195 0.08703676 0.10664016
000040 f0 5a 32 bd af 62 0c be 59 b1 96 3d a9 7d 7f 3d
       -0.043543756 -0.1370952 0.07358045 0.0623757
000050 96 4b c2 bb 3b ca 85 3c 4d 24 2d 3e 6d cd a4 3d
       -0.0059294207 0.016331783 0.16908379 0.08046994
000060 94 6d e3 3d 58 b1 cb 3d de 6a a9 3d ce dc 18 3e
       0.11104885 0.09945935 0.082723364 0.1492798
000070 b3 6a d5 3c c9 56 6f 3c 82 1a 26 3d 75 7e 14 be
       0.026051855 0.014608094 0.040552624 -0.14501365
000080 9e ce da 3d da f2 c4 bd 73 37 d5 bd 71 c8 45 bd
       0.1068394 -0.09616633 -0.10410967 -0.04828686
000090 0b bf ac 3d 93 32 a6 3d b2 44 c5 3d 38 1d 9e 3d
       0.08434876 0.08115115 0.09632243 0.07720417
0000a0 fe c7 00 3e e0 de e1 bc b7 26 8b bd 4f 9c 13 be
       0.12576291 -0.027572095 -0.06794494 -0.14415096
0000b0 1d d8 5d bd 84 2f 98 3d 65 09 fd 3c ff 3d 4d 3d
       -0.05416118 0.07430938 0.030888269 0.050107952
0000c0 6d 71 58 3d 36 0d 72 bd 11 6a a9 bb 5d 19 17 3e
       0.052842546 -0.05909463 -0.005170115 0.14755769
0000d0 5d 88 a0 3d e9 74 d0 3d 4b dc 08 3e 5b 69 8a 3d
       0.07838509 0.10178549 0.13365285 0.06758376
0000e0 5d 5e 18 3e b2 46 e5 3c 49 9d e7 bc b1 22 cf 3d
       0.14879747 0.027987812 -0.028273242 0.10114039
0000f0 60 90 00 3d 02 3b 10 3a 2e 25 2b 3e 09 11 46 3d
       0.031387687 0.0005501957 0.16713402 0.04835609
000100 42 57 d3 3c af 0b 9b 3d db c9 c4 3d 50 fb 49 3d
       0.025798444 0.07570588 0.096088134 0.049311936
000110 25 76 a0 bd 7f 0f 03 bd 0c c0 e0 3c 21 d9 9e bd
       -0.07835034 -0.0319972 0.027435325 -0.07756258
000120 91 c0 82 3d 10 64 19 bc 1d f1 9c bc 9b 2f 2f 3d
       0.063843854 -0.009362236 -0.01915794 0.04277001
000130 98 03 4e 3d 68 f7 ea 3c c9 6f a8 bb c8 88 8c bd
       0.050296396 0.028682426 -0.005140279 -0.068620265
000140 65 90 df bc 60 b6 ce bd f1 4e 94 bd 78 23 08 bc
       -0.027290532 -0.10093379 -0.072416194 -0.008309238
000150 fb 5f 1a bd 7c db 12 3e b2 ef ea ba e3 7a c8 3d
       -0.03768919 0.14341539 -0.0017924218 0.09789064
000160 1b 7d 69 bd 75 c1 64 bc 25 b0 65 3d 63 5b 6d bc
       -0.057004075 -0.013962139 0.056076188 -0.01448712
000170 68 47 01 3d c3 6e bd 3d 9b fa ff 3c ff e8 d8 3c
       0.03156224 0.09249642 0.031247428 0.026478289
000180 d7 7e 94 bd ea 78 02 be 80 e5 c2 3c 67 07 85 b9
       -0.07250755 -0.12741438 0.023791075 -0.00025373252
000190 52 49 e5 bd 08 56 f1 bd 8f aa c6 3c 22 63 e2 bd
       -0.11195625 -0.11783987 0.02425125 -0.11054064
0001a0 7f d2 39 bd 10 07 33 bd 0b bf 91 bd 1e 68 8d 3c
       -0.04536676 -0.043707907 -0.07116517 0.017261561
0001b0 2e f8 99 bc 2e 93 7c bd 1c 99 39 bd f8 3a 6d 3d
       -0.0187951 -0.0616638 -0.045312032 0.057917565
0001c0 23 1b 3d 3d 70 fd 38 3d 1a e4 80 bd dc 11 6b 3c
       0.046168458 0.04516357 -0.06293507 0.01434752
0001d0 89 be c4 3c 75 d6 06 be 83 f2 20 3b ad 0c b5 3d
       0.024016635 -0.13167746 0.002455861 0.08840308
0001e0 8d 2d 1e 3d 9f fc e3 ba f8 69 70 bd 8a ac 00 bd
       0.03861766 -0.0017394013 -0.05869481 -0.031414546
0001f0 e5 39 0e be 45 bf 0d bd 18 bc d1 3d 04 30 8c 3d
       -0.13889273 -0.034606237 0.10240954 0.06845096
000200 b7 b8 6b bd f8 6f 02 be 19 32 2f be a0 8e 56 bd
       -0.057549205 -0.12738025 -0.17108954 -0.05238211
000210 70 c5 be 3d 18 21 67 3d cf d3 09 bd 4a e5 51 bb
       0.09315002 0.056428045 -0.033649262 -0.0032027536
000220 15 43 07 3c 7b ff 44 bc 2f ff 94 3d cd 78 94 3d
       0.00825574 -0.012023802 0.07275235 0.072496034
000230 77 7a 18 be a5 45 c6 3d fb 5c 72 3d 61 6b 55 3d
       -0.14890467 0.096812524 0.059170704 0.052104358
000240 4a 5d 92 3d f7 c4 1c 3d 07 99 f6 3d e8 e4 19 be
       0.071467 0.038273778 0.120409064 -0.15028727
000250 0f ca ff bd 8f bd 82 bd c9 26 ee bd 19 b3 c3 3d
       -0.124897115 -0.06383812 -0.116284914 0.095556445
000260 2a 6e 59 3d 4a d1 3b bb 04 23 ef bc f3 c6 bd bb
       0.053083576 -0.0028658682 -0.029191501 -0.005791539
000270 10 69 11 3e cb fa 41 3d 20 e5 33 be 5c d8 89 3d
       0.14200234 0.047358315 -0.17567873 0.067307204
000280 4b 61 1b 3c 7c bf 14 bc 10 22 0f bd f9 70 8a 3c
       0.009483646 -0.009078857 -0.034944594 0.016899573
000290 3d fc 74 bd 4b 31 39 3d ca d1 3f bd 45 43 78 3d
       -0.059810866 0.045213025 -0.04683093 0.06061103
0002a0 1f 40 3c bd 4e 98 e3 3c da 41 d7 bd 60 f7 e2 3c
       -0.04595959 0.027782585 -0.10510607 0.027705848
0002b0 50 a3 33 3e 49 a4 a0 bd c0 29 2f be e0 70 6a 3d
       0.17542768 -0.07843835 -0.1710577 0.057236552
0002c0 a7 61 83 bd 71 60 bc 3d 69 8a df 39 da af 97 3d
       -0.0641511 0.09198082 0.00042636998 0.07406588
0002d0 1c ab 19 3e c0 33 a0 bc 3c 57 45 be 06 94 0a be
       0.1500668 -0.019555926 -0.19271559 -0.13533029
0002e0 64 aa 29 be b0 0e af bd e3 25 0b 3e 93 b1 30 3d
       -0.16568905 -0.08547723 0.13588671 0.043138098
0002f0 2c 1c f1 3c ea 83 1d 3e cd 57 04 be 1e 3d 2f 3d
       0.029432379 0.15382352 -0.12924118 0.042782895
000300 4a 76 d6 3d 7c e1 35 3e 06 11 94 3d 4e a0 40 3d
       0.104717806 0.17761797 0.072298095 0.04702788
000310 8e db 14 3e 52 31 2b 3e 3e 15 24 3d 2a 06 d1 3c
       0.14536878 0.16718033 0.04005932 0.025515635
000320 34 30 44 3c 01 98 b1 3d 9d cd 57 3e c7 ec 0e bd
       0.011974383 0.086715706 0.21074529 -0.034893777
000330 c8 9d 00 3c 9f dd 27 3e e2 83 35 3e 7e f0 27 3e
       0.007850118 0.16393135 0.1772609 0.16400334
000340 d1 aa 40 bd 84 8a 0e 3d 5a 13 a4 bb a6 dd 27 3e
       -0.047037903 0.034800068 -0.0050071897 0.16393146
000350 9d 69 ca 3d 61 7a a9 bd cf 74 3b bd 8c c7 8e 3d
       0.098834254 -0.08275295 -0.045765694 0.06971654
000360 60 f1 43 3e ff b8 41 3d 0e 29 54 3c 2b cf be 3d
       0.19135046 0.047295567 0.012949241 0.09316858
000370 79 05 1a 3e e2 0c 42 bd ac 85 1d 3e 43 b0 13 be
       0.1504115 -0.047375567 0.15383023 -0.14422707
000380 bb 8c 17 3e f0 42 d8 bd 36 63 c3 bd 6a bd 9f 3d
       0.14799778 -0.10559642 -0.09540407 0.077998
000390 a8 b2 34 bd 3a 14 d9 3c d7 9d f9 3c 2d 52 02 3e
       -0.044115692 0.026498903 0.030470772 0.1272666
0003a0 73 ff a9 3d d3 79 25 3c 6d 36 4d 3c ac f4 12 bd
       0.08300676 0.010099846 0.012525183 -0.03587787
0003b0 67 91 d3 bc fe 05 a0 3d 2a 02 1d 3d 6f 25 3f 3d
       -0.02582617 0.07813643 0.038332142 0.04666656
0003c0 80 53 2e 3e 4d 20 17 be ef 0e 3a bb 4f ba 1c 3e
       0.1702404 -0.14758416 -0.0028390249 0.15305446
0003d0 1b 67 e0 bc fd 09 65 bd d4 76 7a 3b a0 df ce 3d
       -0.027392915 -0.05591773 0.00382178 0.10101247
0003e0 37 a2 12 3c ba 04 36 bc c2 04 c3 3d 5f b2 be bc
       0.008949808 -0.011109525 0.09522392 -0.023278413
0003f0 6e 9a 44 3d d9 22 07 3e 80 10 3b 3e 86 77 15 3e
       0.047998838 0.13196887 0.18268013 0.14596376

rnn.bias_hh_l0 f4 [256]
000000 1b e2 3b 3e 2b eb 40 bc cc fb dc 3b 50 b6 32 bd
       0.18347971 -0.011774818 0.0067438837 -0.043630898
000010 dd d4 53 3d bf d0 6d 3d 4b 0c 2d 3e ab aa b0 bd
       0.051716674 0.058060404 0.1689922 -0.08626302
000020 fc 9c 21 3e 51 c7 35 3e 73 d4 26 bc 1b 19 2e 3e
       0.15782541 0.17751814 -0.010182488 0.17001764
000030 88 11 16 3e c5 4c 2f bc be d8 09 3b 5e 6e 9e 3c
       0.14655125 -0.010699456 0.002103373 0.019339737
000040 36 ec 91 3c 20 97 89 3d 0a b5 ef bc 40 8e ab 3d
       0.01781283 0.06718278 -0.02926113 0.083767414
000050 4a 52 80 3d b0 4e 19 3e d8 c4 1b 3e 02 ba dd bc
       0.062656954 0.14971423 0.15211809 -0.027066234
000060 ec e0 6b 3c d2 04 1a 3e bc 3e 13 3e 8f 66 43 3e
       0.014396887 0.15040901 0.143794 0.19082092
000070 85 19 02 3d 05 f4 35 3d 3d 6f ef 3d 04 a2 dd bd
       0.03176262 0.04442217 0.11691139 -0.10821918
000080 6e 62 9a 3d 34 27 40 bd 63 56 9d 3d 42 7c ac 3d
       0.07538305 -0.046912387 0.076824926 0.08422138
000090 ff f6 dc bc c1 db 37 3e 86 37 c5 3d 25 69 2a 3d
       -0.026973246 0.17954923 0.09629731 0.04160418
0000a0 ef d5 8e 3d b0 a4 52 bd f2 ad fd 3c 40 83 9c bd
       0.06974398 -0.05142659 0.030966733 -0.076422215
0000b0 18 6b 12 3e 64 3a 00 3e 66 03 9d 3d 16 67 50 3d
       0.14298666 0.12522274 0.07666664 0.05087956
0000c0 fa 96 3c bd 99 1a 31 bd 99 e4 45 bd b8 e2 ed 3d
       -0.04604242 -0.043238256 -0.04831371 0.11615509
0000d0 5f 52 b9 bc 18 04 f8 3d 71 ea ba 3d ad 77 5d 3e
       -0.022622285 0.12110156 0.091267474 0.21627684
0000e0 a7 24 07 3d bf 25 cc bc 29 f2 4a bd ed b0 e6 3b
       0.03299394 -0.024920342 -0.04954735 0.007040134
0000f0 fb fb b6 3d 8b c9 42 3d 2c ae 04 bd 77 41 ed 3c
       0.0893478 0.047555488 -0.032392666 0.02896188
000100 6c 6c 27 3c c3 3a d1 3d 38 6f 7f bd fd 6b fc bd
       0.010218721 0.10216286 -0.062361926 -0.12325285
000110 1a b0 e7 3c 4b 31 b8 3d 56 c1 05 bd 87 11 c7 bd
       0.028282214 0.08993777 -0.032655083 -0.0972014
000120 c8 96 d0 3c 87 4c b1 3d a3 cc f1 bd c0 c2 91 3d
       0.025462523 0.086571746 -0.118066095 0.07117224
000130 93 a3 0f bc 12 58 ba 3d ff e1 8a bd d2 e3 8b bd
       -0.0087670265 0.09098829 -0.067813866 -0.06830563
000140 6c 64 66 bd ed 9d ff 3d 4c 18 c9 bc 7d bb 44 bd
       -0.056248114 0.12481294 -0.024547718 -0.048030365
000150 0a 31 c4 3d 0a 6a 68 3d 51 90 90 3a c7 b4 cd bd
       0.09579666 0.05674175 0.0011029338 -0.10044246
000160 f4 98 92 bd a2 24 fa bd 9f 7d c7 bd 64 76 53 3d
       -0.0715808 -0.122140184 -0.09740757 0.051626578
000170 65 ea 8e bd aa 55 0d 3e 6e f7 b2 3d 94 61 05 3e
       -0.06978301 0.1380221 0.087386 0.13025504
000180 4c 0c 23 3d 71 80 82 3d b1 3f 3f bd a2 24 a0 3d
       0.03980665 0.063721545 -0.0466916 0.07819487
000190 e8 c4 5a bb 37 6c 81 bd 1b 91 10 bd e5 b9 47 3d
       -0.0033381525 -0.063194685 -0.035294633 0.048761267
0001a0 d4 f6 8f 3c 72 1b 84 bd 43 7b f0 bd ee 23 89 bb
       0.017573752 -0.06450547 -0.1174226 -0.0041851914
0001b0 d5 62 d1 bd 15 e4 9a 3d 65 6a 1b 3d aa 67 4b 3c
       -0.10223929 0.075630344 0.037943263 0.012414852
0001c0 68 b1 b1 bd 92 c0 c9 bc 79 b9 ab bd 9a 4f 15 be
       -0.08676416 -0.024627957 -0.083849855 -0.14581147
0001d0 6e d6 32 bc e8 f3 0a be 14 a5 5c 3d bd ca f0 3d
       -0.010915382 -0.13569605 0.05386837 0.11757419
0001e0 26 4c 95 3d 40 4c 8c bd 51 28 0e 3e 59 f3 96 3d
       0.07289915 -0.06850481 0.13882567 0.07370634
0001f0 87 bc 27 3d 39 3d d1 3c 69 d5 e3 bd 24 35 9c bc
       0.040951278 0.025541889 -0.11124689 -0.019068308
000200 81 ef 65 3d 92 c4 65 bd c5 e6 b9 3c 83 d1 c1 bc
       0.05613661 -0.056095667 0.022693047 -0.023659473
000210 07 6e 45 3e 3a 67 8a 3d 1a 72 cc 3c d0 ee 12 bd
       0.19280253 0.0675797 0.024956752 -0.03587228
000220 41 50 ea 3d 1b c8 e1 bd 1e c5 88 bc 52 1c 21 bc
       0.114410885 -0.11024495 -0.016695555 -0.009833412
000230 e9 42 10 be 14 f8 05 3d 90 54 20 3e 27 6f c0 bc
       -0.14088024 0.03270729 0.15657258 -0.023490502
000240 a0 75 01 be 7c fd b4 3d 17 2f fc 3d 05 e1 5c 3d
       -0.12642527 0.08837411 0.12313669 0.053925533
000250 db bd d6 bc 21 dd d5 bd 8d 5f e0 bd 28 12 c9 3d
       -0.026213577 -0.104425676 -0.10955725 0.09817916
000260 47 82 8c bd 17 56 0d 3d 52 43 2b be 84 5b 57 bd
       -0.06860786 0.03450593 -0.167249 -0.05257751
000270 80 0f 51 3d 1e 14 30 3e a0 1d f3 bd ac 4b 1a be
       0.051040173 0.17195174 -0.11870885 -0.15067929
000280 4f 7a 68 3d e3 bc c8 3d db 68 ac 3d 42 67 79 bc
       0.056757268 0.09801652 0.08418437 -0.0152223725
000290 b6 ab 1b 3c 75 60 c7 3d be dd 34 be ae b7 7a bd
       0.009501388 0.097351946 -0.17662713 -0.061210327
0002a0 98 6a c7 3d 00 80 2d be e9 5c 14 bd 07 70 51 bc
       0.09737128 -0.1694336 -0.03622142 -0.012783057
0002b0 f4 e9 f2 3d 08 70 c8 bd a9 3d be bc 3d 60 8f 3d
       0.11861029 -0.09786993 -0.023222761 0.07000778
0002c0 1a c2 2c be a8 d7 38 bd 94 04 d7 bd 33 31 c5 bc
       -0.16870919 -0.04512754 -0.1049892 -0.024071312
0002d0 35 0a 97 3d 5a 00 df 3d e6 f3 36 be 8e 93 d7 3c
       0.07374994 0.10888739 -0.17866477 0.026315477
0002e0 99 c9 8d 3d 50 dd 89 3d 6c 28 75 3d 87 ea 40 3e
       0.06923217 0.06731665 0.059853002 0.18839465
0002f0 e5 ff a0 3d a1 8a e5 3b 00 de 90 bd 62 f2 24 3e
       0.07861308 0.0070050512 -0.07073593 0.16108087
000300 8a bb 47 3c 89 91 dc 3c 92 16 c3 3c be a5 08 3e
       0.012190709 0.026924865 0.023814473 0.13344476
000310 eb 50 87 3c 24 5d 13 3e af 45 a7 3c 86 f0 cf 3d
       0.016518077 0.14390999 0.02041897 0.10153298
000320 a7 98 8b bc 79 79 8a 3d 41 05 25 3e a6 30 b1 bc
       -0.017040564 0.0676145 0.16115285 -0.021629643
000330 0c 6a 54 bb 2e f6 bd 3d 48 28 2e 3e 1c 9d 4f 3e
       -0.0032411842 0.09275471 0.17007554 0.20274776
000340 37 a1 92 bc 5e f4 c1 bd 4a 24 81 bd 3a 16 6a 3d
       -0.017899139 -0.094704375 -0.0630575 0.057150103
000350 5a c2 3e bc 61 67 9b 3d 5c 38 ea 3d c3 cf 1a 3e
       -0.011643017 0.07588077 0.11436531 0.15118317
000360 37 d7 38 3d b5 5d 76 3d a4 50 ee 3c 1f 41 18 3e
       0.04512712 0.06014796 0.029091187 0.14868592
000370 56 21 d5 3a cb 3d 85 bd 65 c3 31 bd c4 fb a0 3d
       0.0016260545 -0.06505927 -0.043399233 0.078605205
000380 6b e7 54 3e f7 cb 1f bd 30 b2 37 bc 5d a5 a1 3d
       0.20791404 -0.039012875 -0.011211917 0.07892869
000390 c5 0a a7 3d d9 7a e0 3d 27 2b cc 3d 51 4b db 3d
       0.08156351 0.10960931 0.09969168 0.10707725
0003a0 5d 17 85 bd be 3f 0d bd fa 34 cb bc 35 14 d1 3c
       -0.06498597 -0.034484617 -0.024805535 0.02552233
0003b0 6d e1 14 3e 08 66 62 bd ac 4b d8 3d 50 7f 42 bd
       0.14539118 -0.055273086 0.10561308 -0.047484696
0003c0 c2 84 2d 3e 36 1f 76 bd 4f 39 05 bd 80 5c 82 3d
       0.16945174 -0.06008836 -0.032525357 0.06365299
0003d0 70 a3 9b bb 36 6a 07 3e 7e ca 94 3d 2b 02 25 3e
       -0.004749708 0.1322411 0.07265185 0.16114108
0003e0 3a 47 27 3e 5a ff e7 3d 93 6f 23 3e 84 a9 b0 3d
       0.16335765 0.11328001 0.15960531 0.086260825
0003f0 44 40 f5 3c 2b 21 3c bd 4e d2 bd bc d6 05 4d 3e
       0.02993787 -0.04593007 -0.02317157 0.20021757

out.0.weight f4 [1, 64]
000000 97 17 3e be 9f f2 86 3d cc 8a de 3d 0e 0e 23 3e
       -0.18563686 0.06589245 0.10866317 0.1592333
000010 ec 2b e5 bd 1d fc dc bd 7c 74 d4 bd 7f 1b 16 3e
       -0.11190018 -0.10790274 -0.1037378 0.14658926
000020 4d f6 f4 3c df 1e 0f 3e ff 37 73 be 96 d9 27 be
       0.029902602 0.1397662 -0.2375183 -0.16391596
000030 cf 88 b8 3d 4c cd 27 be 48 d2 3d be cf a9 0c be
       0.09010469 -0.16386908 -0.18537247 -0.13736652
000040 45 72 0e bd 25 e6 01 3d 30 5b 8d bd 44 bf e8 3d
       -0.034776945 0.031713624 -0.06902158 0.11364606
000050 59 51 88 3d cc bb ea 3d 9f 4e 0f 3e 2d 45 00 be
       0.06656141 0.11461601 0.13994835 -0.12526388
000060 33 af c6 3d 87 c4 2a be 21 9a 22 3e 4b 96 51 3e
       0.09701385 -0.16676532 0.15879108 0.20467488
000070 23 f2 3b be aa d0 f3 bd f7 71 7c 3d a6 8b 2d 3d
       -0.18354087 -0.11905034 0.061632123 0.042369507
000080 94 79 2f be f9 ad 7c 3c 54 a1 26 3d c5 69 fa bd
       -0.17136222 0.015422338 0.0406812 -0.12227205
000090 a2 3d e3 3a e1 ad 17 be 80 e1 ae 3d 2b 7f 45 be
       0.0017337094 -0.14812423 0.085391045 -0.19286792
0000a0 8d 44 ab 3d f7 d0 8c 3b 58 81 d1 3c 16 82 99 3d
       0.083626844 0.0042973715 0.025574371 0.07495515
0000b0 2e 39 1f be 4f 00 43 3c b4 20 24 3e ef 16 94 3d
       -0.15549156 0.011901929 0.160281 0.07230937
0000c0 85 18 c8 3c 7d 53 a2 bd 57 ab 07 bd cf 84 4c be
       0.024425754 -0.079260804 -0.033122387 -0.19972537
0000d0 c1 59 09 be 0f 63 aa 3d 4b b4 94 3d e3 78 e8 3d
       -0.13413145 0.08319675 0.07260951 0.11351182
0000e0 33 cd 26 3e 1a f5 14 3e 29 b9 ff bb 39 4f 0b be
       0.16289215 0.14546624 -0.007804055 -0.1360444
0000f0 12 f2 49 be f9 6a b0 bc 7c d2 46 3e aa 72 41 be
       -0.19721249 -0.021535384 0.19416231 -0.18891397
