后端/model1.pt (torch, 71767 bytes, 5 tensors)

rnn.weight_ih_l0 f4 [256, 2]
000000 1b eb e7 bc 36 ca a8 bd a4 f9 57 3d 6f 84 6e bd
       -0.02831035 -0.08241694 0.05272831 -0.058231767
000010 77 fe e6 bd f9 87 25 bd a1 25 54 bc ff d9 99 bb
       -0.11279004 -0.040412877 -0.012948425 -0.0046951766
000020 1f c5 39 3c 69 b5 86 bd a3 e0 8c 3c c0 ac f3 3d
       0.011338501 -0.0657757 0.017196959 0.11898184
000030 00 0e 6d bd 67 7a c0 bd 6d 9f 0a 3e e6 7c 10 bd
       -0.05787468 -0.093983464 0.13537379 -0.035275362
000040 2f 59 85 3d 29 5c 1c be 72 39 89 bd a3 54 d2 3c
       0.06511151 -0.15269531 -0.0670041 0.025675124
000050 9a 11 2a be bf 83 f3 bd 7f ce d8 3d 70 97 75 3d
       -0.16608277 -0.11890363 0.10586261 0.059958875
000060 32 9b 6d bd 25 4c 5b bd cc 45 c1 3d f8 85 83 bd
       -0.058009334 -0.053539414 0.09437141 -0.06422037
000070 9f 69 8d bc 26 34 b8 bd 2b 83 05 3e d6 82 99 bd
       -0.017262278 -0.089943215 0.13038318 -0.07495658
000080 5f 62 ff 3d d3 7e a3 3d 60 d5 e7 3c bc 66 24 bd
       0.12469935 0.07983174 0.028299987 -0.040137038
000090 5c d5 4f 3e 92 9c 6e 3c 9a 26 c5 3d f5 98 a7 3d
       0.20296234 0.014563696 0.09626503 0.08183471
0000a0 22 d3 a3 3d 09 58 1a 3d 8a d7 b2 3d 3f 20 a5 bd
       0.07999255 0.037681613 0.08732517 -0.08062791
0000b0 7c 79 07 3e de 10 c5 3d 64 5b f2 3c b4 22 75 3d
       0.13229936 0.09622358 0.029584594 0.05984755
0000c0 bc 24 d4 3d 25 e9 0a be 86 81 44 3e b3 81 c6 bd
       0.10358569 -0.135655 0.19190034 -0.09692707
0000d0 9a 2c 17 3d 10 2a a6 bd a3 4c 38 3e f4 08 15 bd
       0.03690777 -0.081134915 0.17997985 -0.03638549
0000e0 cd a7 19 3d bb 75 e7 bd 05 93 96 bd 27 22 81 bd
       0.037513543 -0.11301752 -0.073522605 -0.06305342
0000f0 b8 db f6 3d c0 7b 36 be f2 a5 10 3d 3d 2b 41 bd
       0.12053627 -0.17820644 0.035314508 -0.047160376
000100 bc a4 31 3e 24 4f 8a bd 6f 7c 30 3d c3 b9 97 3c
       0.17347997 -0.06753376 0.04308742 0.018521195
000110 55 06 a4 3d d7 f7 3e 3d 1f 36 80 bd a7 03 cb 3c
       0.0800902 0.046623077 -0.06260323 0.024782015
000120 0d 47 7a 3d da b4 d3 bd 8f 3a 34 3e 8c e1 8b bd
       0.061102916 -0.10337229 0.17600463 -0.06830129
000130 02 0b 0f 3e 67 6f 34 bd 53 d5 06 3c 3c 8b ee 3d
       0.13969043 -0.044051554 0.008229571 0.116476506
000140 f7 98 24 3d 01 31 b0 bd 82 95 0a 3e 81 86 81 bd
       0.04018494 -0.08603097 0.13533595 -0.06324483
000150 10 7d 35 3e 53 d2 e5 bd 13 3e 3d 3e 6d 6b 1b be
       0.17723489 -0.11221757 0.1848071 -0.15177698
000160 18 ba 6e bc d0 1f ac bb 63 bc 92 3d d8 c6 8e bd
       -0.014570735 -0.005252816 0.07164838 -0.0697152
000170 65 66 6f bd 88 47 81 3d 98 a2 fe 3d 22 bd 1b 3c
       -0.05844726 0.06312472 0.12433356 0.009505542
000180 61 85 15 3d 2c cb 8d bd 3d e5 e4 3d 46 02 d5 bd
       0.036504153 -0.069235176 0.11176536 -0.10400824
000190 d2 8e 3a bd e4 d4 10 be 9d fe 45 bc dc f5 50 bd
       -0.04554636 -0.14143711 -0.01208463 -0.05101572
0001a0 ad 6a bb 3d 69 e7 dc bd 53 3a a1 3d f5 25 a5 bd
       0.09151206 -0.107863255 0.078724526 -0.0806388
0001b0 4f 2d 8a 3c 3c 17 8b bc 3d a8 b3 3b be 29 d3 bd
       0.016867308 -0.016978852 0.005482702 -0.10310696
0001c0 18 d4 a7 3c f1 af 0b 3c 30 78 61 3d e3 bd 26 bd
       0.020486876 0.008525834 0.05504626 -0.040708434
0001d0 f0 a7 9a bb 50 91 38 bd 50 43 6f 3e 94 35 0a be
       -0.0047197267 -0.045060456 0.23365521 -0.13497001
0001e0 85 95 bc bd b9 f7 cd 3d a1 1a 25 3b f9 a7 d4 bd
       -0.09208206 0.10057015 0.0025192874 -0.10383601
0001f0 7e 5d 68 3d 05 7b 14 be ff 25 97 3d ac 39 52 3a
       0.056729786 -0.14500053 0.07380294 0.0008019458
000200 fb b0 d4 bd e9 68 d6 bd d6 6f b5 3d 26 37 8a 3c
       -0.10385319 -0.10469229 0.08859222 0.016872
000210 41 e9 c9 bd bf 69 f4 3d 2e 88 dc 3d ec 34 70 3d
       -0.09858943 0.11934232 0.10768162 0.05864422
000220 62 49 f7 3d 99 b5 71 bd 9d 36 b7 3d 50 24 0e 3d
       0.120745435 -0.059011076 0.089459635 0.0347026
000230 cf ca 38 3e b0 0d 80 bd d2 aa 48 3d 38 ac 8c 3d
       0.18046115 -0.06252611 0.048991032 0.068687856
000240 6f 18 99 3d da 8b 8b 3c 60 21 93 bd ef 37 1b 3d
       0.074753635 0.01703446 -0.071841 0.03789514
000250 1b b1 9f bd cd e6 b3 bc d4 3c a2 3d 00 cb 69 bc
       -0.07797452 -0.02196064 0.07921758 -0.01426959
000260 bb f5 8a bd 3e d8 98 3d 8c 64 45 3e e5 dc 21 be
       -0.067851506 0.0746312 0.19276637 -0.15806921
000270 1e e5 d0 3c 11 f3 af bc 85 4e b2 3d ef 5b 8c 3d
       0.025499877 -0.021478208 0.08706383 0.068534724
000280 07 f3 bc 3d 94 2d ba bd f1 f5 36 bc dc b8 5c bd
       0.09226041 -0.090907246 -0.011167035 -0.053887233
000290 79 c5 a1 3c fd 5c aa 3d 4d 9e 1c 3e c7 ac 8b bd
       0.019747483 0.08318517 0.15294762 -0.06820064
0002a0 85 f8 da 3d cd ec 83 3d 7e 39 36 3e 0d c1 6a 3d
       0.106919326 0.064416505 0.17795369 0.057313014
0002b0 7a 11 ef 3d 9b 08 80 3d 94 e4 29 3e c5 0b a2 3d
       0.11673255 0.06251641 0.16591102 0.07912401
0002c0 18 33 b1 3d 80 af c2 bd 59 7b ed 3d d0 0f 8c 3d
       0.086523235 -0.0950613 0.11595792 0.068389535
0002d0 84 e2 ae 3d 8a 64 81 bd 65 73 9b 3c 04 a9 f4 bd
       0.08539298 -0.063180044 0.018975923 -0.119463
0002e0 56 eb e7 3a 4a c3 a1 bc 61 7e 92 3b f5 a1 8c bd
       0.0017694037 -0.019746441 0.004470632 -0.06866828
0002f0 d7 9b e9 3d d0 09 c8 3d 1d 46 02 3e 65 c0 f8 3d
       0.11406677 0.097674966 0.12722059 0.12146071
000300 14 c2 25 3d aa 68 59 3c 26 1a 0d 3e e7 02 21 bc
       0.04046829 0.013269583 0.13779506 -0.009827352
000310 0d 38 4b 3d a3 cf 64 bd a9 a8 5e 3d 94 b1 c2 3c
       0.049614 -0.05586208 0.054360066 0.023766316
000320 6b e0 35 3e 14 36 c5 3d f1 eb 01 3e 71 68 c4 bc
       0.1776139 0.09629455 0.12687661 -0.023975583
000330 7e 61 17 3e 2f c5 9a bd 92 75 87 bd 32 6c f2 bd
       0.14783284 -0.07557141 -0.06614222 -0.11837043
000340 6c 7a 47 3d 6e 70 79 bd d6 8b 35 3e 43 a6 01 bd
       0.048700735 -0.060898237 0.17729124 -0.0316527
000350 7d 3f 1e 3e 2c c0 8a 3d ff 7f de 3c eb bd 92 bd
       0.15453906 0.06774935 0.027160643 -0.0716513
000360 07 68 87 3d 9e 87 77 bd 89 38 94 bd ae 19 99 3d
       0.066116385 -0.06043207 -0.07237346 0.07475601
000370 1c ed f7 3d 61 c0 d8 bd 25 80 3a 3e c2 39 81 bd
       0.12105772 -0.10583568 0.18212946 -0.063098446
000380 bd e0 12 be bb d6 7f 3c 94 b8 53 3d cd fa fe 3d
       -0.14343543 0.015615161 0.0516897 0.1245018
000390 55 6d 89 3d e9 69 a8 bd 52 e4 94 3d 8b 15 a6 3d
       0.067103066 -0.08223326 0.07270111 0.08109578
0003a0 32 39 f1 39 5b 14 cb 3d a1 b8 19 3d 02 d9 30 3e
       0.00046009716 0.09915992 0.03752959 0.17270282
0003b0 1b ac d4 3d ba 48 e3 bc bd 98 0a be cc 16 7c 3d
       0.10384389 -0.02774464 -0.13534828 0.06154518
0003c0 f7 de 11 bd ab cd f6 3b 14 68 be 3d 87 e1 8a 3d
       -0.035613026 0.0075318418 0.09297195 0.06781297
0003d0 1f 4c d3 3d 7b 86 b0 3d e4 6d 11 3e 33 0b 40 3d
       0.10317253 0.086194 0.14202076 0.04688568
0003e0 78 bd b6 3d eb 12 a7 bc 43 8c 8f bd ff f0 19 3d
       0.08922857 -0.020394763 -0.07009175 0.037583347
0003f0 c7 15 1b be 16 aa cc bb be 6b 79 3d 6f 4e 80 3d
       -0.15145026 -0.0062458618 0.060893767 0.0626496

rnn.weight_hh_l0 f4 [256, 64]
000000 57 9a 17 be 93 fe 03 bd 0b 5b 56 bd 46 e8 01 3e
       -0.1480497 -0.032225203 -0.05233292 0.12686262
000010 70 3d 05 3e 9b 92 01 be 18 57 16 3c 9c bb 95 3c
       0.13011718 -0.12653582 0.009176038 0.018277936
000020 5c d6 b0 3a 4b d2 11 3d a1 3c 05 3e 8b 27 f4 3d
       0.0013491618 0.03560094 0.1301141 0.11921605
000030 58 0a 07 be fe f3 21 3d e1 12 8e bd 9b a3 e7 3c
       -0.1318754 0.03953933 -0.069371946 0.028276255
000040 09 96 24 3c c4 51 47 bc 4c ee bf 3d 3c f3 bb 3d
       0.010045537 -0.012165491 0.093716234 0.09177253
000050 e6 9f ab 3c f4 de ad 3d 2e 33 17 be 77 7c 6d bd
       0.020950269 0.084897906 -0.14765617 -0.057980027
000060 3c 76 0f 3d 17 2b e1 3d 05 60 52 bc 43 1c d1 3c
       0.035024866 0.10994547 -0.012840276 0.025526172
000070 fa 92 c2 bd 47 a4 91 bd 14 5e 8f 3d 15 6f b8 bd
       -0.0950069 -0.071114115 0.07000366 -0.09005562
000080 b4 52 ab bd 13 a3 53 bc 3f 87 09 bd ad dd a0 3c
       -0.08365384 -0.012917298 -0.033576246 0.019636953
000090 f7 24 0c 3e a4 3a d6 bd 5d 89 f0 3d c2 c9 e3 3d
       0.13685976 -0.104604036 0.1174495 0.111224666
0000a0 6a 37 87 3d 5d 3a 71 bd f0 e5 ae bc fa e5 ab 3d
       0.06602366 -0.05889355 -0.021349877 0.08393474
0000b0 a4 ec 5e bc e3 08 3d bd 9b c0 54 3d 67 c4 a1 bd
       -0.013606224 -0.046151053 0.051941495 -0.07898789
0000c0 5c 72 51 bd f8 b8 9f 3b 2b bc ab 3d 07 45 57 3d
       -0.051134452 0.004874345 0.083854996 0.052556064
0000d0 93 51 2b 3d 6e b8 bc 3d 0f 57 64 bd 28 3c f4 bd
       0.041825842 0.09214865 -0.055747088 -0.119255364
0000e0 85 52 8e bd eb f0 2d bd e4 ef d6 bc 35 16 92 bd
       -0.06949333 -0.042466085 -0.026237436 -0.07133142
0000f0 73 a3 3b 3d 29 cc 37 3d e6 ee 1c 3e e6 5f 0c be
       0.045810174 0.044872437 0.15325508 -0.13708457
000100 c9 85 14 3e 26 37 4f 3d a9 3f f4 3c df 56 1a 3d
       0.1450416 0.050589703 0.029815512 0.037680503
000110 b9 a4 46 3d 6b aa 16 3e 9e 34 34 bd 10 95 cd 3a
       0.048496936 0.14713447 -0.043995492 0.0015684683
000120 6a a9 54 bd 7c 03 b8 bd 37 f2 93 bd fd 8d 78 3d
       -0.05191938 -0.089850396 -0.07223933 0.060682286
000130 cc 69 f4 3b 23 88 53 bd 0b 73 19 3e 0f 0d 87 3d
       0.007458901 -0.051643502 0.14985292 0.065942876
000140 af 01 f5 3c 1c 87 f7 3b 30 e9 b3 bd 8b 61 18 3d
       0.02990803 0.007553948 -0.08784711 0.0372024
000150 97 ec 80 bc ee 74 83 bd 97 dd 91 3d 91 72 3f 3a
       -0.015737815 -0.06418787 0.07122343 0.00073031435
000160 4c 9e d5 bd 50 9f 7f bd 65 4d df 3c 6c b2 20 3e
       -0.10430583 -0.06240779 0.027258584 0.15693063
000170 d9 f3 2b bd a9 79 a8 3d 53 3b f6 bd fb 8d c3 bd
       -0.041980598 0.0822633 -0.12023034 -0.09548565
000180 6b 76 bb bd 94 2c 09 be a9 8b 10 bc 29 f4 95 bc
       -0.09153446 -0.13395911 -0.00882236 -0.018304901
000190 b3 86 9e bd a2 1f 70 bc 7b c8 b5 3d bb 8f b5 bd
       -0.077405356 -0.014655979 0.08876129 -0.08865305
0001a0 cc ab e1 3d 36 f2 a1 3d a4 45 a7 3d fa 09 55 3d
       0.11019096 0.07907526 0.0816758 0.052011468
0001b0 e0 6e 0a be 69 b8 4a 3d 0b 65 a9 3c 2f d6 0b be
       -0.13518858 0.049492273 0.020678064 -0.13655923
0001c0 a4 7e 38 3c 4a 09 10 be ec 3c c9 3d 8d 95 e4 3d
       0.011260662 -0.14066043 0.09826073 0.11161337
0001d0 ef fe e3 bd 7b 05 a4 bd 85 97 1c 3d 9f 98 9a bc
       -0.11132609 -0.08008858 0.038230438 -0.018871604
0001e0 96 b8 fb 3d 2e a3 1c be a8 2d 57 bd db 8a 15 3d
       0.12291066 -0.15296623 -0.052533776 0.036509376
0001f0 df b6 0b bc 96 88 93 3d 05 a4 45 3c 99 72 b0 3c
       -0.008527487 0.07203786 0.012063031 0.02153902
000200 23 4c bd bd 79 55 d9 bd 2f 3c a4 3c f6 a4 22 3d
       -0.092430376 -0.10612006 0.020048229 0.0397081
000210 ce 93 17 3d c4 42 ef bd a4 6e 6d bd 77 3f 54 bb
       0.037006192 -0.116826564 -0.057966843 -0.003238646
000220 ca 92 84 bc a8 aa 1c bc 69 ce 2f 3d 76 f6 df bc
       -0.016183276 -0.009562172 0.042921457 -0.027339201
000230 49 5e 0b be 06 36 5c bc f3 ee 9e bd bf fe a9 bc
       -0.13610186 -0.013440615 -0.0776042 -0.020751355
000240 bb f8 17 be 0b d2 8b bd 9d 97 f9 bb 7f 40 0b 3e
       -0.14840977 -0.06827172 -0.0076169507 0.13598822
000250 b0 1e 16 bd 4f 02 dd 3d b6 2a c2 bd 96 1b 91 3d
       -0.03665036 0.10791456 -0.09480803 0.0708534
000260 77 ea 92 bd 0e ed ea 3d 2a 3c 19 3e da 92 e3 ba
       -0.07173627 0.11470996 0.14964357 -0.0017362491
000270 ca d5 c2 bd 28 63 d6 3c 0d 70 07 3d 49 7e 48 bd
       -0.09513433 0.026170328 0.033065844 -0.04894856
000280 26 09 07 be 7f 32 2b 3e 09 d3 85 3d ed 50 1c 3e
       -0.13187084 0.16718481 0.065343924 0.15265246
000290 fc 98 c0 bc da c3 93 bd b8 28 ad 3d e7 e8 87 3d
       -0.023510449 -0.0721509 0.08455032 0.066362195
0002a0 1f 18 32 be a4 aa c5 3d e5 cd 59 3d ac 41 67 bd
       -0.17392014 0.09651688 0.053174872 -0.056459114
0002b0 3a 28 02 3e e3 74 94 3d de 90 5d 3e f9 ce fd 3d
       0.12710658 0.07248857 0.21637294 0.123929925
0002c0 0c ce 19 3e 01 9d f3 3d c4 d1 c6 3d 50 4c 4a 3d
       0.15020007 0.118951805 0.09707978 0.049389184
0002d0 35 59 21 3d d3 ee 6a bd 40 cc 99 bb 4a e9 33 be
       0.039391715 -0.057356667 -0.004693538 -0.17569461
0002e0 94 5f c9 3d d1 e9 96 3d 33 e6 8c 3d bf b2 2f be
       0.09832683 0.07368816 0.068798445 -0.1715803
0002f0 71 7c 12 3d 65 16 33 be 7c 01 aa bc af e7 03 bd
       0.035763208 -0.17489012 -0.02075266 -0.032203373
000300 07 ad 10 be 4f d2 2a bd ca a9 c2 bb 5a 57 c0 bd
       -0.14128505 -0.041704472 -0.0059406506 -0.09391661
000310 3b 09 95 bd 91 1e 09 be 7b 1e 28 3d 3b e7 37 3d
       -0.07277151 -0.13390566 0.041044693 0.044898253
000320 b0 bf 3a bd f1 a5 f1 bd 18 03 14 3e a2 29 0e 3c
       -0.045592964 -0.11799229 0.14454305 0.008676918
000330 61 1a ab bd bc 42 f4 bd 85 05 26 bd b6 52 80 bd
       -0.08354641 -0.11926791 -0.040532608 -0.06265776
000340 e8 70 0b be 87 e3 86 b9 83 6f db 3b ad 28 d6 3d
       -0.13617289 -0.00025727993 0.006696643 0.10456977
000350 fc 6b 25 bd 71 6d 08 3d e9 4d f7 bc 56 ee c2 bd
       -0.040386185 0.033307496 -0.030188518 -0.09518115
000360 d1 d2 1b 3c 57 7b f8 3c 5f b0 ca bd 80 a6 29 3d
       0.009510712 0.03033225 -0.09896921 0.041418552
000370 de 3b f6 bd 15 a5 26 bd 50 26 fa 3d 0f 91 f9 3d
       -0.120231375 -0.04068478 0.12214339 0.12185871
000380 68 19 b4 3d 88 74 a0 3d 5f 8e ea bd 62 39 56 3d
       0.08793908 0.078347266 -0.114529364 0.05230082
000390 05 0a 1f 3d 58 df fb 3c c2 af 13 3e ba 4e b6 bd
       0.038827915 0.030746147 0.14422515 -0.08901735
0003a0 fb 23 b0 3c 32 5f ab 3d 60 39 d0 bd 3a a2 cc bd
       0.021501532 0.083677664 -0.101671934 -0.0999188
0003b0 25 64 6d bd 43 3b f7 bd 88 20 6e bd 7c 49 78 bd
       -0.057956833 -0.1207185 -0.058136493 -0.060616955
0003c0 f3 7e 9b bd 18 6f 62 bd 85 08 43 3c 83 b6 dc 3d
       -0.07592573 -0.05528173 0.011903887 0.10776999
0003d0 aa e2 42 3d 57 5c fe 3d 5d b3 00 bd 76 3d 06 be
       0.047579445 0.12419956 -0.031421054 -0.13109383
0003e0 e8 11 94 3d 63 6f f2 3c 29 f7 ab bd 02 b4 81 bd
       0.07229978 0.029594129 -0.083967514 -0.06333162
0003f0 9b b6 70 bd 8f dc b4 3c 1a 1d 33 3b 65 74 7a 3c
       -0.058767896 0.022077827 0.0027330578 0.01528654

rnn.bias_ih_l0 f4 [256]
000000 4d b5 20 3e 36 09 e5 ba 98 26 c2 3d 82 95 bc bd
       0.15694161 -0.0017474059 0.094800174 -0.09208204
000010 41 b6 c7 3d 8c 32 6a bd b8 47 83 bc 76 ca 84 bd
       0.09751559 -0.05717711 -0.01602541 -0.06483929
000020 ba 1d 20 3e f1 a9 43 3e 67 66 89 3d f4 59 c5 3d
       0.1563634 0.19107796 0.06708985 0.09636298
000030 9e 73 d9 3c 2b da 9c ba 16 b4 d3 bb 47 c6 a9 3c
       0.026544388 -0.0011966875 -0.006460677 0.020724429
000040 05 3b 1d bd cc 5d da 3d 05 90 bb bd 09 75 02 3e
       -0.038386364 0.106624216 -0.09158329 0.12739958
000050 c4 d1 c4 bc 76 14 9a 3d 83 e7 cc bd 7e 79 89 bd
       -0.024025805 0.07523434 -0.10005095 -0.06712626
000060 be eb 47 3c 97 09 82 bd d6 57 49 bd b0 20 17 3c
       0.012202201 -0.06349485 -0.049156033 0.009224102
000070 3a 6f 33 bd 44 f1 39 3e 44 20 28 3d 44 d9 61 3e
       -0.043807246 0.18158442 0.041046396 0.22055537
000080 8e 5d fc 3c 67 d9 b3 3d 8e 08 86 3d 66 82 27 bd
       0.03080633 0.087817006 0.065446004 -0.040895842
000090 ff d5 ee 3d a1 9a 9a 3d 93 18 63 3d ff e8 b3 bd
       0.1166191 0.075490244 0.055443358 -0.08784675
0000a0 ec bb 66 3d fa 5a f0 3b 34 a3 c0 bd 0b 54 ce bc
       0.05633156 0.007335064 -0.094061285 -0.02518656
0000b0 dc e9 04 3e 61 f0 88 3c 0a df 7e 3d dd f5 34 3d
       0.12979835 0.016716184 0.062224425 0.044179786
0000c0 a5 eb 3c 3c 2e 21 c7 bd ac 5a ef 3d be 97 04 3d
       0.011530791 -0.097231254 0.11687216 0.032371275
0000d0 7f ab ff 3d 03 70 1b 3e af 6e 2b 3d b6 a1 93 3a
       0.12483882 0.15179448 0.041853603 0.0011263404
0000e0 da 4c a1 3d ad 3e ee 3d 42 cd 14 3e 00 54 48 3e
       0.078759864 0.11633048 0.14531425 0.19563293
0000f0 47 f4 d3 bd 38 2a 06 3e e7 52 2c 3e fd 61 8c 3c
       -0.103493266 0.13102043 0.168285 0.017136568
000100 00 81 cb bd ab 64 40 bd ff 36 c6 3c 9a 2f dd bc
       -0.09936714 -0.046971004 0.024196146 -0.027000237
000110 09 1f 51 3d 75 19 98 3c 2f 62 01 bd ff ac ba bd
       0.051054988 0.018566826 -0.031587776 -0.09115028
000120 59 79 63 bb dc 53 8f bd 53 79 68 bd a7 a1 b1 bd
       -0.003470978 -0.06998417 -0.05675633 -0.08673411
000130 c1 29 71 3c ff 5a 0e 3e 1d 29 d6 3d c9 e9 14 3e
       0.014719428 0.139019 0.104570605 0.14542307
000140 ca eb 9e bd 45 dd 78 bd 40 a2 2c b9 51 0a 7d bd
       -0.07759817 -0.060757894 -0.00016463641 -0.061777417
000150 a0 74 80 bd e3 7f 0c 3d 63 48 31 3d 70 4b 3c 3d
       -0.062722445 0.03430165 0.043281924 0.04597038
000160 88 f4 c9 3d e6 f5 45 bd 91 52 d0 bd 7f d6 95 bc
       0.09861094 -0.04833021 -0.10171998 -0.018290756
000170 cf bd 6c bb cf 8f 28 bd 9e 0e 4b bd 5d 15 7a 3d
       -0.0036123877 -0.04115277 -0.049574487 0.06105553
000180 66 99 9a 3d 6f f6 14 bd 49 dd 14 3e 28 91 a3 3d
       0.0754879 -0.03636783 0.14537539 0.07986671
000190 39 4d 8b 3d 86 05 03 bd 99 2b 28 3d b9 3d 70 bd
       0.068018384 -0.03198769 0.041057203 -0.058652613
0001a0 58 09 bd 3b 51 41 85 bb da 95 85 bc 9c 24 80 3b
       0.005768936 -0.004066624 -0.016306806 0.003910614
0001b0 86 a5 cf bd e9 af cc 3b 8c 78 7a bc f3 f3 68 bc
       -0.10138993 0.006246556 -0.01528753 -0.014218318
0001c0 3f 1c 80 bc fa 6f a1 bd c8 ca 7f bd 9d 0f 32 bc
       -0.015638469 -0.07882686 -0.062449247 -0.01086798
0001d0 12 4a 1a 3d b0 7e 28 bc e8 03 65 bd 36 9e 17 3d
       0.037668295 -0.010284111 -0.05591193 0.037016116
0001e0 90 cb d9 bd bf f2 50 3d fc 18 8e 3d ce cb 9d 3d
       -0.106345296 0.05101275 0.06938359 0.07704888
0001f0 ff 3c 5f bc 5a 1b 52 bc 93 23 a9 3d 83 30 89 bd
       -0.013625382 -0.012823904 0.08258738 -0.06698706
000200 29 04 17 3d 91 f5 ce bd 1e 67 05 3e 82 92 9e bb
       0.0368692 -0.10105432 0.13027617 -0.0048392424
000210 20 d0 f2 3d c6 88 02 be f0 8f 94 3d 9f 10 be bc
       0.11856103 -0.12747487 0.072540164 -0.023201285
000220 57 4c db 3d 50 33 30 bd b8 5a 59 3c 54 46 3d bd
       0.1070792 -0.043017685 0.013266258 -0.04620965
000230 77 db 63 3d 96 a5 c9 bd df 6a f6 bc f0 3a 11 3e
       0.05562922 -0.09846036 -0.030080257 0.14182639
000240 66 e5 c6 bd 8b 5d de 3c 89 e5 8a bd c2 04 20 3e
       -0.09711723 0.027144214 -0.067820616 0.15626815
000250 b8 e7 7b 3d 15 5d fb 3c 98 dd c9 bd 38 0f b1 3d
       0.06150028 0.030684033 -0.09856719 0.08645481
000260 fc bd 7a 3d 6c a9 18 3e d9 45 da 3d 31 84 d3 bd
       0.06121634 0.1490838 0.10657854 -0.10327948
000270 c9 45 16 be 60 c7 85 3d 99 29 04 bd e2 5b 20 be
       -0.14675058 0.065321684 -0.032266233 -0.1566005
000280 5c 59 48 3d 66 fe 0c 3e 41 19 8c bd 1a 3b ee 3d
       0.048913345 0.1376892 -0.06840754 0.116323665
000290 22 2d 92 bd 98 7f 97 bd af d4 c2 3d 07 dd b2 3d
       -0.07137515 -0.073973835 0.095132224 0.08733564
0002a0 f9 13 22 3d 02 86 12 3e f0 d1 f7 3c be 50 25 3e
       0.03956983 0.14308932 0.030251473 0.16144082
0002b0 6a dd ab 3d 59 62 a1 bd ea 7a dd bc 04 e0 10 3e
       0.08391841 -0.078800865 -0.027036149 0.14147955
0002c0 26 94 33 bd 36 19 99 bb a0 6e 87 3d 34 31 af bd
       -0.043842457 -0.004672195 0.06612897 -0.085543066
0002d0 6c 3d aa bc 04 95 12 3c 4f b9 87 bd 45 89 9d 3d
       -0.020781241 0.008946661 -0.06627142 0.07692198
0002e0 bb 11 51 bc 4a dd d5 3c c5 33 d9 bc 6e 59 8a bd
       -0.012760575 0.026106495 -0.026513943 -0.067553386
0002f0 a8 0f 70 3d 6f c8 5f bd 0f 20 16 3e c7 2a fe bd
       0.05860868 -0.054634508 0.14660667 -0.12410503
000300 d6 05 a9 3c 3c fd 0f be c6 47 27 3e 3e 02 00 3c
       0.020632666 -0.14061445 0.16335973 0.007813035
000310 94 97 3e bd df 58 b2 bd b5 1b 8f 3d 25 27 d2 bb
       -0.046531275 -0.08708357 0.069877066 -0.006413358
000320 bb c7 6d 3d 79 b9 35 3e 1b d8 2b 3d f8 42 35 3e
       0.058051806 0.17746533 0.04195414 0.17701328
000330 a9 92 f5 3d d8 90 27 3d cb 1f 8f bd f4 e8 97 bd
       0.11990864 0.04090962 -0.06988486 -0.07417479
000340 bb 31 87 bd 44 76 e1 bd fe f5 db 3d 46 3f 4f bc
       -0.06601282 -0.110088855 0.10740279 -0.012649363
000350 98 20 22 be e8 48 1a 3d 96 69 60 3c 8c 03 53 bd
       -0.15832746 0.037667185 0.013697049 -0.051517054
000360 aa d2 1b 3e 4c d4 2c 3e 09 b7 a2 bd 72 54 50 bd
       0.1521708 0.1687786 -0.079450674 -0.050861783
000370 55 dc 51 3d 2f 28 43 3e 8b 64 4b 3e bc b7 01 3e
       0.051235516 0.19058298 0.19862573 0.12667745
000380 97 d3 b6 bc 21 3e 8f bd 48 3e 3f bd 26 31 55 bd
       -0.02231769 -0.06994272 -0.046690255 -0.052048825
000390 a4 d1 2a 3e a2 ae 43 3e 7d ba e8 3d 42 39 bc 3c
       0.16681534 0.19109586 0.11363695 0.022976521
0003a0 d1 b7 c8 3d 53 9d 22 bd 3d 75 bd bd 38 19 57 3d
       0.09800685 -0.039700817 -0.09250877 0.052514285
0003b0 fc 55 3f bd 04 85 8c 3c 51 f7 52 3d 49 1d 98 bd
       -0.04671286 0.01715327 0.05150539 -0.07427461
0003c0 9a 48 40 bd 4e 52 fc 3d 1c c2 26 3e 7f 2e 89 3d
       -0.04694424 0.12320386 0.16284984 0.066983216
0003d0 7e 20 22 3e d9 04 ba 3d dc eb 15 3e b2 40 37 3e
       0.15832707 0.09082956 0.14640754 0.17895773
0003e0 ee 4b 97 3d 09 2b 84 3d af cd da 3d 37 c6 06 3e
       0.07387529 0.06453521 0.10683762 0.1316155
0003f0 29 9a 0a 3d cc 03 f5 bb 0f 05 66 3d 2a 40 b6 ba
       0.033838425 -0.0074772593 0.056157168 -0.001390462

rnn.bias_hh_l0 f4 [256]
000000 43 9d 85 bd a9 2c 78 bd 70 10 0a 3e 35 9f d7 3d
       -0.06524136 -0.060589466 0.13482833 0.10528413
000010 e8 65 9c bd 8e aa ad 3d 6f 3b 63 bd 73 f5 18 3d
       -0.076366246 0.08479796 -0.055476602 0.037343454
000020 b7 74 e0 3d a0 21 69 bc 77 a2 37 3e 54 ee a7 3d
       0.109597616 -0.014229208 0.17933069 0.08199754
000030 45 16 2f bd c5 5a a8 bd 20 32 f9 3d ab 8b a1 bd
       -0.042745847 -0.08220438 0.12167764 -0.07887968
000040 fb 5f 87 bd cd b7 76 3d e5 71 49 bd f0 0a 92 3d
       -0.06610104 0.06023388 -0.049180884 0.071309924
000050 3f 33 af bd ad 68 19 3e 99 ba b9 3d 84 a6 23 bd
       -0.08554696 0.14981337 0.09068794 -0.039953724
000060 fe 97 02 3e d5 5e 42 3d 07 29 a2 3d 09 ca a2 3d
       0.12753293 0.04745372 0.079179816 0.079486914
000070 02 2f a5 bd ec 5a 09 3e 10 ac 30 3e b2 46 5e 3d
       -0.08065607 0.1341359 0.17253137 0.05426664
000080 a8 c7 24 3c c1 22 09 3e c1 5f 11 bb bf 90 02 3e
       0.010057367 0.13392164 -0.0022182318 0.12750529
000090 c4 05 3d 3e d8 7d 3d bd be 0a 94 bc 3d e6 1a bd
       0.1845923 -0.046262592 -0.018071529 -0.03781723
0000a0 18 7c 4f 3d c1 c5 61 3a b6 ee 08 3e 01 e0 f6 3d
       0.050655454 0.00086125365 0.13372311 0.12054444
0000b0 b7 dd e0 3d 8f 86 a9 3d 98 27 20 bd 37 0a c7 3d
       0.10979789 0.08277618 -0.03910026 0.09718745
0000c0 42 8c 01 3e f3 d7 b5 3d 28 a4 ae 3d 10 7f 25 3e
       0.1265116 0.0887908 0.08527404 0.16161752
0000d0 94 f4 f0 3d 99 44 f4 3d 4e c7 0a 3e a8 2c 2f 3d
       0.117653996 0.119271465 0.13552591 0.042767197
0000e0 6a cd 24 3e 1b af fa 3d 85 0a 40 3d fc 15 07 3e
       0.16093984 0.1224043 0.046885032 0.1319198
0000f0 b4 5b 47 3d a2 b0 a5 bc 0e 17 74 3d 0e f9 c7 3d
       0.04867144 -0.020225827 0.0595923 0.097643
000100 87 24 c6 3b d1 05 fd bd 35 88 ab bd f5 c0 b9 bd
       0.006046835 -0.12354625 -0.08375589 -0.09070007
000110 9f cd 08 bd 29 ae f3 3d ee 71 47 3d f3 44 30 bc
       -0.03339922 0.11898453 0.048692636 -0.010758626
000120 ad 32 cd bc 31 b1 ce bd ce b8 05 be 4b 26 9f bd
       -0.025048578 -0.1009239 -0.13058779 -0.07770976
000130 a0 91 87 3b 22 49 05 3e 55 9e 45 bd b3 59 8d bc
       0.004137233 0.13016179 -0.0482467 -0.017254686
000140 8e 7b d4 3d 15 31 c2 3d c1 88 59 bd 2f 9c 89 3c
       0.10375129 0.09482018 -0.053108934 0.016798107
000150 3e b4 b8 3c 94 11 54 3d 2b 0d 56 3c c2 f4 c9 bd
       0.022546884 0.051774576 0.013064663 -0.09861137
000160 b9 b8 87 3c a8 d1 8f bc aa 1e e9 bd dd 1f 28 bd
       0.016567575 -0.017556027 -0.11382802 -0.041046012
000170 ad cc fe 3d 4d 82 d3 3d 17 91 00 3d 98 5c 5f 3d
       0.124413826 0.10327587 0.03138837 0.054531664
000180 a7 51 bb 3c 9a d7 b5 bd d0 54 1d 3e 42 ed 5a 3b
       0.022866083 -0.08879013 0.15364385 0.0033405577
000190 6d 3a b2 3c 3f 70 ae bd 64 d6 8f bd f7 19 b6 3d
       0.021756375 -0.08517503 -0.07023314 0.08891671
0001a0 83 86 c5 bc 5e 47 88 bd d4 06 37 bd b3 45 01 3e
       -0.024111992 -0.06654237 -0.044684246 0.12624244
0001b0 af ab e6 3d a8 3f f9 bd fc c9 df bc 96 ed d2 3d
       0.11263215 -0.121703446 -0.027317993 0.10299222
0001c0 95 66 5a 3c 80 04 42 bd f5 04 ef 3c c0 97 06 3d
       0.0133301215 -0.047367573 0.029177168 0.032859564
0001d0 a8 90 63 3d b7 72 17 3d d8 01 b2 3c 77 03 8e 3d
       0.055557877 0.036974635 0.021729395 0.069342546
0001e0 4c b8 81 3d eb db df bd 09 64 04 be c6 83 66 bd
       0.0633398 -0.10930618 -0.12928785 -0.056278013
0001f0 c6 cd 58 3c a6 83 0a 3e e2 ff b5 bc 36 8d d2 3d
       0.013232654 0.13526782 -0.022216741 0.1028084
000200 6a e9 42 bd 2f b2 e0 3d 41 cf ce bd cd 97 da 3d
       -0.047585882 0.10971486 -0.10098124 0.10673485
000210 69 68 91 bc 69 fa 0e be 4b 52 56 3d 10 02 de bb
       -0.017749982 -0.13962711 0.052324574 -0.006775148
000220 bc 10 06 3e ce 25 35 3d 71 6a cc 3d 87 e8 40 3d
       0.13092321 0.044225506 0.099812396 0.047096755
000230 4b a6 1e bb bf 67 bd 3c 90 ad fc bd 54 f4 75 3d
       -0.0024208005 0.023120759 -0.12337792 0.060047463
000240 80 7d f5 bd 99 83 52 3a 80 b2 02 be 11 07 bf 3c
       -0.11986828 0.0008030474 -0.12763405 0.0233188
000250 0c bc 27 bd c2 11 a2 3d fe 54 1c be 47 f4 14 bd
       -0.04095082 0.07913543 -0.15266797 -0.036365774
000260 86 e0 5a 3d bf 5f b5 3d 74 5a 5b 3d c5 e6 e9 bd
       0.05343678 0.08856153 0.05355306 -0.11420969
000270 7d d1 9c bc dd 7f 2e 3d 68 fd ce 3d 06 aa 45 39
       -0.01914286 0.04260241 0.10106927 0.00018850723
000280 75 37 d1 3c ec e5 09 3e ce 6e a5 bd 80 9b 03 3d
       0.02553914 0.13466614 -0.08077775 0.03213072
000290 b0 70 aa 3d 82 b8 ec 3c 12 bf 6b 3c 03 62 ea 3d
       0.08322275 0.028896574 0.014388816 0.114444755
0002a0 58 9b 90 bd d4 65 f3 3d b7 80 df 3d 71 ba e2 3d
       -0.070608795 0.118846565 0.10913222 0.11070717
0002b0 3f 09 53 3d 30 a4 4f 3d 7f c8 c5 3d 80 4b 31 3d
       0.05152249 0.05069369 0.09657382 0.043284893
0002c0 77 dc 33 b9 e7 d5 97 ba cd 32 fc bc 93 1e a8 bc
       -0.000171529 -0.0011584134 -0.030785942 -0.020522391
0002d0 96 f1 28 3d 6a 70 b5 3d 77 c9 b4 bd 48 2f cb bc
       0.04124602 0.08859332 -0.08827489 -0.024802819
0002e0 b4 f5 08 bd 25 42 85 3d 49 3f b9 3d 6d fd 18 bd
       -0.033437446 0.06506757 0.09045274 -0.03735106
0002f0 5e df 92 3c 25 6c 0c be 85 c3 10 bd dc 18 5c bd
       0.017928775 -0.13713129 -0.035342712 -0.053734645
000300 6d 10 83 bd 67 a1 b8 bd b2 b9 21 3e 79 8c 3f 3d
       -0.06399617 -0.0901516 0.15793493 0.046764825
000310 5e 48 ae bd 9c 8f ad 3d 28 3c e2 3d 67 5d c9 bb
       -0.08509897 0.08474657 0.1104663 -0.0061451676
000320 72 78 74 3d 12 2c 80 3d 2b 73 72 3d 4f f0 04 3e
       0.059685178 0.06258406 0.059191864 0.12982295
000330 34 73 6e bc 9f 2d ce bd c3 c8 91 bd c9 32 e1 3d
       -0.014553834 -0.10067295 -0.071183704 0.109960146
000340 f6 40 0c bd 0a 68 ef 3d 2c a2 f0 3d 62 52 09 3c
       -0.03424164 0.11689766 0.11749682 0.008381458
000350 3c 46 0b be c7 dc 8b 3d be 67 fc 3d 7a 13 7c 3d
       -0.13601011 0.06829219 0.12324475 0.06154201
000360 c3 e2 34 bd b9 ce ea 3c cc f7 9f 3d ab 06 06 3e
       -0.04416157 0.028663026 0.078109354 0.13088481
000370 c7 00 01 be 7e f6 a8 3d 41 a5 31 3e 48 99 ab 3d
       -0.12597953 0.0825014 0.17348196 0.083788455
000380 e4 cd 62 bc e9 e9 be bd c0 04 cb bd ad 93 15 3d
       -0.013843033 -0.093219586 -0.09913015 0.036517788
000390 c8 31 39 3d aa 3e 57 3e 18 ae 90 bc 2b ba 0c be
       0.04521349 0.21019998 -0.01766114 -0.13742892
0003a0 4f 53 f0 3d 4b f1 4f 3d 96 a7 96 bd fa 3f 0c 3e
       0.1173464 0.050767224 -0.07356183 0.1369628
0003b0 49 59 87 bd 8d e0 23 3e 0e eb 3e 3c 03 1a be 3d
       -0.06608827 0.16003628 0.011652721 0.09282305
0003c0 7e d2 05 3e f8 d3 19 3e 8b 07 28 3d ca f8 92 bd
       0.13068578 0.15022266 0.04102282 -0.07176359
0003d0 16 2b e8 3b 71 ab c3 3d b0 6b 92 bd 69 b8 a3 bc
       0.0070852144 0.09554184 -0.07149446 -0.019985395
0003e0 ab c8 2a 3e 4a 3c 34 bd 39 6d 8c 3c 7e 8f 95 3d
       0.16678111 -0.04400281 0.017141925 0.073027596
0003f0 0a 39 26 3d fe 18 7f 3c 21 3b c3 bc 6f ee a4 3c
       0.04058174 0.015569923 -0.023831906 0.020133225

out.0.weight f4 [1, 64]
000000 64 21 81 3d 28 0d 81 3d 5e 08 90 bd 33 ae 20 3d
       0.06305197 0.063013375 -0.07032846 0.03922863
000010 37 b7 0e 3e 30 57 36 bd d2 db 14 3d ec aa eb 3b
       0.13937078 -0.044516742 0.03634245 0.0071920063
000020 bf 66 f2 3d 58 d6 11 3e bb 84 0b be fc c4 1f 3e
       0.118360035 0.14241922 -0.13624851 0.15602487
000030 a6 eb a5 3d f6 28 f5 bc 21 77 d5 bb a1 18 8f 3d
       0.08101587 -0.029926758 -0.0065144454 0.069871195
000040 7a 7b 8b bd 49 2c 0b 3d 7f 9d 12 be 19 bf 9c 3d
       -0.06810661 0.03397778 -0.14317892 0.076536365
000050 73 71 28 3d 9a ab fa 3d 19 15 80 bd 1a 93 66 3d
       0.04112382 0.12239762 -0.06254024 0.05629263
000060 80 69 bb 3d e4 f1 0b 3e 82 13 0f 3d fd 5c 0b be
       0.09150982 0.13666493 0.034930713 -0.13609691
000070 bf c9 ca bd b3 ae 3f be 31 64 50 3e 59 ad 09 be
       -0.09901761 -0.18718986 0.2035072 -0.13445033
000080 75 cb d0 bd e6 75 fe 3d fa e9 4d bd a9 09 62 3d
       -0.10195056 0.12424831 -0.050271966 0.055184994
000090 47 d4 ee 3d b6 ff 3c be 77 f5 15 3e 12 d3 1d bd
       0.116615824 -0.18456921 0.14644419 -0.03853137
0000a0 52 e9 d3 bd 2f 21 d3 3d eb c7 19 3e 6c 1d bf 3d
       -0.10347237 0.10309064 0.15017669 0.09331784
0000b0 6f 77 09 3e d1 eb 24 3e 1a ba 9a bc 6e ff 08 3e
       0.13424467 0.16105582 -0.018887568 0.13378689
0000c0 7f 75 93 bd 84 a7 9d 3d 55 8a 3a be a4 93 95 bd
       -0.07200145 0.07697967 -0.18216832 -0.07303551
0000d0 a8 bc 32 3e 10 fc 1f be ef c0 54 bd e2 ef b5 3d
       0.17454779 -0.15623498 -0.05194181 0.08883645
0000e0 9a b8 4e 3e 84 48 13 3e 12 42 42 3e 45 c9 c7 bd
       0.20187607 0.14383131 0.18970516 -0.09755186
0000f0 82 a6 35 3c d7 68 60 3d ce f1 44 bd 0f 4a bb bd
       0.011087062 0.054787483 -0.048082165 -0.09144985
